results/model.pth (torch, 231599 bytes, 8 tensors)

conv1.weight f4 [20, 1, 3, 3]
000000 60 c6 9c bd a0 3e 0b 3d 10 26 b0 bc e0 5e 41 3c
       -0.076550245 0.03399527 -0.021502525 0.011802405
000010 8b e1 93 be b8 40 44 bd 22 92 07 3e f0 ed 45 be
       -0.28883013 -0.047913283 0.13239339 -0.19329047
000020 b0 11 53 be 0b d8 4a bd 05 7f 09 be 2c 5a cc be
       -0.20612216 -0.04952244 -0.1342736 -0.39912546
000030 31 f1 0f 3e 03 74 bd 3d cb ac bd be 8b a7 bc 3e
       0.14056851 0.09250643 -0.37045893 0.36846575
000040 c8 8d 59 be 12 0c 8f be a6 25 7d be f2 39 08 bd
       -0.21245492 -0.27938896 -0.24721393 -0.033258386
000050 1b 7f 54 be 35 c2 33 be 0d 1a 8c be 9c ef 69 be
       -0.20751612 -0.17554553 -0.27363625 -0.2284531
000060 34 81 8c be 0d a6 8c bc fb 41 87 bc 90 c9 cd 3e
       -0.27442324 -0.017169023 -0.016510954 0.40192842
000070 e7 47 53 3d 53 77 6c be 93 f8 bb 3e 05 b1 b2 3e
       0.051582243 -0.23092394 0.36713085 0.3490068
000080 46 df f3 3d 8f 16 73 bd 4f e5 d6 3e 07 bc a6 bc
       0.119078204 -0.059347685 0.41971824 -0.02035333
000090 95 de 5a 3e a5 31 8a 3e da aa f5 bd 1f d3 2b be
       0.21373971 0.26991 -0.11995478 -0.16779755
0000a0 00 54 a8 bc d3 93 50 be df 94 1b 3e 6f 57 26 3e
       -0.020547867 -0.2036889 0.15193509 0.16244291
0000b0 d0 91 69 3e 0b c3 a6 bc 2f 2f fa bc 63 df 14 3e
       0.2280953 -0.020356676 -0.030540077 0.1453834
0000c0 65 2c 01 be 52 67 86 3c 44 a7 35 bd 1b b3 7f 3d
       -0.12614591 0.016406689 -0.04434897 0.062426668
0000d0 5d 60 91 3e f9 09 0e be 89 7a e3 bd b1 46 ce 3e
       0.28393832 -0.13870992 -0.11107356 0.40288308
0000e0 b8 4c c1 3e cb 89 e8 3e 7b 77 d0 bd 90 bb cc bc
       0.37753844 0.45417628 -0.10179039 -0.02499178
0000f0 36 ad e9 3e 7e 0c ac 3d a3 8a c2 3e b5 be 08 be
       0.45639962 0.0840082 0.37996396 -0.13353999
000100 03 71 40 be 4d c0 39 be 4c 80 03 3e 91 95 23 be
       -0.1879311 -0.18139763 0.1284191 -0.15975024
000110 33 a5 c2 bd 25 27 ba 3e 91 6b 83 3e a7 79 19 be
       -0.095041655 0.3635799 0.25668004 -0.14987813
000120 77 45 9d bd 64 d9 5a 3e 30 ca c2 be 7c 6f 7f 3e
       -0.07679265 0.2137199 -0.38044882 0.24944872
000130 28 d3 19 be b1 6c 85 be 5b 0d d0 3e 2a 68 e2 3c
       -0.15021956 -0.26059487 0.4063519 0.02763756
000140 49 e9 b8 be fb 72 aa 3e e2 15 ff 3e 1a 85 73 3e
       -0.36115482 0.33290848 0.49821383 0.23781243
000150 69 a5 cc bc 17 eb 0d 3f c6 1c 19 3f c7 cd 7c 3e
       -0.024981217 0.55436844 0.5980953 0.24687873
000160 21 49 1d 3f 59 7f f0 3e 33 ff cf bc 95 45 79 be
       0.6143971 0.4697216 -0.025390243 -0.2434295
000170 ea 9c 89 3e d5 36 f9 3d 13 68 68 be 6d 96 b9 3c
       0.26877528 0.121686615 -0.22695951 0.022654736
000180 26 b8 c4 bc 62 e6 a6 bc ae 09 7f 3e d1 fb a8 bb
       -0.02401359 -0.020373527 0.24906036 -0.005156972
000190 41 ed 8e bd 00 8f b2 3d 82 c1 b7 3e ec 7f 73 be
       -0.06978846 0.08718681 0.35889822 -0.23779267
0001a0 83 8e 82 bd 37 e6 a4 3d f6 6a a4 be b8 91 88 be
       -0.06374838 0.080517225 -0.32112855 -0.26673675
0001b0 51 40 ed bd 35 88 86 be 3d c4 bb 3d 5d 8d 10 be
       -0.11584533 -0.26275793 0.09168289 -0.14116426
0001c0 d5 9b 9d 3d 0f d5 67 3e c2 36 a6 be f7 d5 2b be
       0.07695738 0.22639869 -0.32463652 -0.1678084
0001d0 5e 46 cf bc a0 0d 40 be 40 96 d1 3e 2d 2b b6 3e
       -0.025302108 -0.18755198 0.40934944 0.35579816
0001e0 fe d3 3f 3e 2d 34 b6 3e fa 86 bc bd 05 f1 70 bb
       0.18733212 0.35586682 -0.09205432 -0.0036764753
0001f0 d0 d3 3e 3e e8 62 85 be 27 05 ce 3d 14 66 d2 3d
       0.18635488 -0.26052022 0.100595765 0.10273376
000200 81 9a 84 be 5f d7 2c bb 4c ec f8 bd c7 85 4a bc
       -0.25899127 -0.0026373488 -0.12154445 -0.012360997
000210 af 81 9c be b1 0e a4 be 7c ec 87 be 8a ff c7 3e
       -0.3056769 -0.3204246 -0.2654761 0.39062148
000220 5e 6b 13 3e d8 da 17 be 22 93 09 be a0 96 f4 3b
       0.14396426 -0.14829576 -0.13435033 0.007464245
000230 ee 91 9f be f0 93 1b bd 87 63 a2 be 56 13 64 be
       -0.31166023 -0.03798288 -0.31716558 -0.22273001
000240 45 ba f3 3e f2 9b f0 3e 3f 1d 02 3f 75 18 95 3e
       0.4760305 0.46993977 0.50825876 0.29120222
000250 d8 e8 c3 3e bb f4 c2 3e 93 07 91 3e 0c a4 14 3f
       0.38263583 0.3807734 0.2832609 0.58062816
000260 8e d4 ac 3e c9 bd 39 be ec 19 a6 3d d5 9a 8b 3d
       0.33755916 -0.18138804 0.08110413 0.06816641
000270 55 7d 8c bd 49 82 9a be 79 6d a3 be 55 74 97 be
       -0.06859843 -0.30177525 -0.31919459 -0.29580942
000280 30 86 10 3e 00 ea a2 3d 6f 09 aa bd 94 20 0a bb
       0.14113688 0.07954788 -0.083025806 -0.0021076547
000290 e5 fd a8 be c3 90 98 3e 63 e0 03 3e 9f b2 e5 3c
       -0.33006206 0.29797944 0.12878565 0.028039275
0002a0 eb ee 21 bd 9f 25 49 3e 2d 50 b8 bd 9b 7f 4f be
       -0.03953449 0.19643258 -0.08999667 -0.20263521
0002b0 0c 24 7f 3c 96 2f a5 3d d1 93 1e 3e 1e 6d 71 be
       0.015572559 0.08065717 0.15486075 -0.23576781
0002c0 3d a3 05 3e 92 33 70 be 85 62 23 3e d9 76 92 be
       0.13050552 -0.23457173 0.15955551 -0.286063

conv1.bias f4 [20]
000000 ec f0 a5 be 9c 11 e5 3e 8f e7 5a 3e 30 e1 56 b7
       -0.3241037 0.44739997 0.21377395 -1.28078245e-05
000010 73 06 6b 3c c2 0e a9 be c2 3b fe 3d b4 16 35 3d
       0.014344799 -0.33019072 0.12413742 0.044211105
000020 0d 7d 4f 3e da 51 cb 3a c1 df d8 bd f5 c5 f6 ba
       0.20262547 0.0015512065 -0.10589553 -0.0018827306
000030 3e ed 2e be cf d2 bb 3e 3e 46 db bd ef 4b cf 3e
       -0.17082688 0.36684272 -0.10706757 0.4048762
000040 9d 5e 0f 3b 08 7e b0 bd 8a a5 01 3e f6 e7 81 be
       0.0021876462 -0.086177886 0.12660804 -0.25372285

conv2.weight f4 [30, 20, 2, 2]
000000 cc 6c 5a 3d 44 8f a7 3d 2a cc 86 3d 50 51 d8 3b
       0.053326413 0.081816226 0.0658191 0.00660149
000010 bb d5 b2 bd 12 5c c6 bd 54 7a 7a bd ce a3 b3 bd
       -0.08732172 -0.0968553 -0.061151817 -0.08771478
000020 1b f5 9c ba 23 a2 d0 3c ed 0a aa bc 13 f9 ac 3d
       -0.0011974903 0.025467938 -0.020757163 0.08445945
000030 e2 4b ef 3d fc 06 07 3e 2d b4 49 bd fa e9 1c bd
       0.116843954 0.13186258 -0.049244095 -0.038309075
000040 b8 0d bc 3d 4c bd 27 3d a2 e6 d9 3d 85 84 ed 3d
       0.09182304 0.040952012 0.10639693 0.11597542
000050 99 b7 0d 3d 67 94 50 3d d2 88 28 bd 9c a7 a9 3c
       0.03459892 0.050922778 -0.041146107 0.020709805
000060 78 f9 99 3d 25 9c 0a 3e 09 c9 79 3d d6 bc 06 3e
       0.075182855 0.13536127 0.060982738 0.13157973
000070 7e b5 8c 3d 34 ca 3f bd f6 b5 8b bd ac c9 a4 bd
       0.068705544 -0.046823695 -0.06821816 -0.08046278
000080 9a a0 03 3c 9b e4 a6 bd a0 cd b4 3c 56 24 c5 bd
       0.008033896 -0.08149072 0.022070706 -0.09626071
000090 08 bc 0e 3e 62 1b 3c 3e 8c d0 32 bd cd c7 bf 3d
       0.13938916 0.1836982 -0.043655917 0.09364281
0000a0 e5 7b 82 bd 3e 54 00 3c b7 79 a0 bd 0b fd 71 3d
       -0.06371287 0.007832585 -0.07835715 0.05907921
0000b0 f0 64 c1 bd 94 15 d8 bd 88 98 7d bd 43 74 06 bd
       -0.094430804 -0.10550991 -0.061913043 -0.03282572
0000c0 26 b2 d3 3d cd 7f d5 3d 94 7e c0 bd 64 4f 3e 3c
       0.103367135 0.10424767 -0.09399143 0.011615608
0000d0 bf c9 12 3e 4f b9 0b bd ea 43 0a bd 8c cb 27 3c
       0.14334773 -0.03411227 -0.033756174 0.0102414
0000e0 f6 37 64 3d 55 59 d7 bd 53 37 c5 bd d7 23 11 3c
       0.05571743 -0.105150856 -0.09629693 0.008858643
0000f0 69 2f a4 3d 56 e5 9e bd 5f 13 d2 bc 42 f5 b0 bd
       0.08016855 -0.07758586 -0.025644002 -0.08640529
000100 c1 1e 73 3d 63 1b 9b 3d 9f 2b 6a 3d 6b 36 fe 3d
       0.0593555 0.07573583 0.057170507 0.12412723
000110 d1 dc a4 bc 44 15 60 3d ef 4c ce bc c0 e6 53 3d
       -0.020124825 0.05470778 -0.02518317 0.051733732
000120 ff 3d 29 3d 14 9e ec bc dc 8b cc bd c2 f5 c4 3c
       0.04131889 -0.028883971 -0.099876136 0.024042968
000130 07 59 11 bd 22 96 5a 3d 78 42 4d 3d f6 a7 b3 bc
       -0.035485294 0.053365834 0.050112218 -0.021930676
000140 14 b4 b3 bc db c5 9c bd a2 52 9b 3d 70 e2 dc 3d
       -0.021936454 -0.076549254 0.0758412 0.10785377
000150 40 e9 40 3d 8b 0e 24 be 3d e8 6c 3d 80 e7 d5 bc
       0.047097445 -0.16021173 0.057838667 -0.026111364
000160 bb ab be 3d fa 9c 37 bd ad 45 28 bd 56 36 48 3d
       0.09310099 -0.04482744 -0.041082073 0.048879944
000170 b5 54 df 3d d7 a1 34 3e c1 a1 c1 bd ba 5d bc 3d
       0.109048285 0.17639862 -0.0945468 0.091975644
000180 b9 4f 62 bd 3a a9 49 3d a8 d2 07 bb 96 10 66 3d
       -0.05525181 0.049233653 -0.0020724926 0.05616816
000190 48 11 c6 3d c3 23 c9 bd b6 ab 02 3d 3b 28 4e bd
       0.09671265 -0.09821274 0.031902038 -0.050331336
0001a0 ac 7f 2a 3d ca 3b 1d 3e eb f1 2c 3d 89 d7 9f bc
       0.041625664 0.15354839 0.0422229 -0.019511955
0001b0 ef 62 ee 3c 3e 82 a8 bd 03 bc c3 bd be c5 b2 bd
       0.02909991 -0.08227967 -0.09557345 -0.087291226
0001c0 9c 54 58 bd a8 9a c6 bd a5 d7 d2 bc bc 50 ad bc
       -0.052815065 -0.09697467 -0.025737593 -0.021156661
0001d0 21 17 ec 3d 7e 53 ab 3d 83 00 2f 3c e2 97 24 3e
       0.11527849 0.08365534 0.010681274 0.16073564
0001e0 e1 59 a2 bd 64 22 dd 3d d3 6c 79 3d fc 84 63 bd
       -0.07927299 0.10797575 0.0608948 -0.055546746
0001f0 38 7b 2e 3d 18 2e 96 bd 37 8f d3 bb 21 7c dd bd
       0.04259798 -0.073330104 -0.0064562815 -0.10814691
000200 08 6c ed 3c b7 03 bd 3d b8 61 2d 3d 97 56 85 bd
       0.028982177 0.09229224 0.04232952 -0.06510656
000210 24 e4 e1 3c 7e 01 53 bc f5 d9 14 bd a7 e1 41 3d
       0.027574606 -0.012878774 -0.036340673 0.04733434
000220 57 44 b0 bd fb 39 cf 3d 9e dc 46 bd f6 42 07 ba
       -0.08606785 0.10118481 -0.04855024 -0.0005159819
000230 4d 69 75 3d d9 35 df bc 61 56 a0 3d 57 78 7e bc
       0.059914876 -0.027247356 0.078289755 -0.015531621
000240 86 4d ed bc 3f 41 64 3e 3f 73 b0 3a 1c c9 3c 3e
       -0.02896763 0.22290514 0.001346208 0.18436092
000250 b6 70 99 bc 43 f6 c6 bd 0b 3b cd bc 3a 9e 2b bd
       -0.018730503 -0.097149394 -0.025052568 -0.041898943
000260 c3 93 b7 bb 70 bc a3 bd 19 e3 c2 3d 39 66 86 bc
       -0.0056023314 -0.07994926 0.09515972 -0.016406165
000270 e4 4e 33 bd ec bc 43 3d 74 d2 d0 bd 08 5c 4c bc
       -0.043776408 0.04778759 -0.10196391 -0.012473114
000280 f4 12 a2 bd 80 e2 dc ba 0c 7a 5e 3d a1 8e df bd
       -0.07913771 -0.001685217 0.05431561 -0.10915876
000290 9c 2b 8e 3d 1e 1e ab bd 89 3a 24 bd 1c f0 07 3e
       0.069419116 -0.08355354 -0.040094886 0.13275188
0002a0 5c 2d a1 bd b3 ab aa bd 40 02 20 3d de da 8f 3d
       -0.0786998 -0.0833353 0.039064646 0.070241675
0002b0 fd 56 f1 3c 96 88 e7 3d a3 f7 ec bd eb c7 91 3d
       0.029460425 0.113053486 -0.115706705 0.071182095
0002c0 ce 2b 85 3d a1 a0 fb 3b 58 c2 ca bd 10 c2 59 bd
       0.06502496 0.0076790606 -0.099003494 -0.053163588
0002d0 d7 97 42 bd d8 3f 68 bc 11 5e f2 3c 66 05 97 bc
       -0.047508087 -0.014175378 0.02958587 -0.018435191
0002e0 b9 d1 2d 3d 7a ba 5a 3d 2d 4b 7f 3d 52 46 7b bd
       0.042436335 0.053400494 0.062327553 -0.06134636
0002f0 5c 73 9e bd 1f af db 3d e2 66 6e 3d 2e cd 70 3d
       -0.07736847 0.10726761 0.058203585 0.058789425
000300 a4 84 cb 3d b0 6a 69 bb 16 bc 6d 3d 91 32 d1 3c
       0.099374086 -0.003561657 0.0580407 0.025536807
000310 aa 85 4e bd bb 24 1d 3d 78 a7 b3 bd 14 f1 9d bd
       -0.05042044 0.038365107 -0.087721765 -0.07711998
000320 47 19 a4 3b 46 30 cc bd 16 48 fc bb 49 4d 7a 3d
       0.005007896 -0.09970145 -0.007699023 0.06110886
000330 ac 42 8b 3d 75 92 a4 3d 7a d9 95 bb 99 32 76 3d
       0.06799826 0.08035747 -0.0045730444 0.060106847
000340 df 4a 64 bd 03 80 80 bd 3e 54 d4 bd 84 4e 10 bd
       -0.055735465 -0.06274416 -0.103676304 -0.03523113
000350 b2 ec cb 3d d5 0e a1 3d 68 18 57 bd 67 3b 1e 3d
       0.099572554 0.07864157 -0.05251351 0.03863087
000360 6a a9 9d 3d 25 65 f1 3b 6b 96 11 bb 0f b3 24 bc
       0.07698329 0.0073667937 -0.00222149 -0.0100524565
000370 87 24 95 3c 06 97 7d bd d3 6f 0c 3e 27 b4 72 bd
       0.018205894 -0.061911605 0.13714533 -0.059253838
000380 83 ed da bc 04 fd 9c 3d 02 09 1c 3b 46 94 04 be
       -0.026724583 0.076654464 0.002380908 -0.12947187
000390 63 b6 18 3d b9 9d 96 3d c2 37 99 3d f3 5e 7a bd
       0.037283313 0.07354302 0.07481338 -0.061125707
0003a0 bb c5 3f bd 6a 27 b2 bd c0 10 fd 3d 9e 37 ae bd
       -0.04681943 -0.08698924 0.123567104 -0.08506702
0003b0 f5 f6 b1 bd 1b 5f 34 3c 6e d9 cb 3c e4 33 00 3d
       -0.086896814 0.011009003 0.024883952 0.031299487
0003c0 e0 de 90 3d e0 35 f4 bb 9c 61 90 bc f8 bb 92 3d
       0.0707376 -0.0074527115 -0.017624669 0.071647584
0003d0 27 5d 3e be e7 dc 27 be 4f 65 b4 bd e3 33 8f bd
       -0.18590222 -0.16392861 -0.088083856 -0.069923185
0003e0 aa 41 cb bd 5d 4a a3 3a 0d 73 ea 3c 08 6b de 3a
       -0.09924634 0.0012458075 0.028619314 0.0016969154
0003f0 3f ad 3f bd 21 c2 70 3d 02 ad 51 bd ed 5c 98 bc
       -0.04679608 0.058778886 -0.051190384 -0.018598998

conv2.bias f4 [30]
000000 a2 8e 40 bd 10 35 bd bd 6e a3 3a 3e bb 96 a8 bc
       -0.047011025 -0.092386365 0.18226406 -0.020579686
000010 69 06 74 3d 5b 41 5b bd da 52 5c bd da cf 61 bd
       0.059576426 -0.053529125 -0.05378995 -0.055129863
000020 57 4a 41 3d cc 21 8c bd 75 e1 56 3d c2 46 22 3c
       0.047190037 -0.06842384 0.052461106 0.009904565
000030 5d 80 f7 3d ad 1f c2 3b f0 ff 9d bd 5a a4 be bc
       0.1208503 0.005924186 -0.07714832 -0.023271728
000040 bb dc 27 3e d9 1d 20 bd 25 c6 18 3e d0 49 c2 3d
       0.16392796 -0.039090965 0.14919336 0.09486735
000050 d5 1d ac bd 08 b4 7a bd 92 9c 0d bc 52 99 46 bc
       -0.084041275 -0.061206847 -0.008643286 -0.012121515
000060 04 74 a9 bd 2b 22 f6 3d 48 05 ad 3d e6 35 02 3e
       -0.08274081 0.12018236 0.08448273 0.12715873
000070 f8 eb d4 3d e5 3c 3b 3c
       0.1039657 0.011428093

fc1.weight f4 [50, 1080]
000000 cc bd f8 bc a2 9b ac 3a da ff ff bb ce de a4 bc
       -0.03036394 0.0013168941 -0.0078124823 -0.020125773
000010 77 60 79 bc 12 e1 92 bc 17 04 93 bc 2e 8e b3 bc
       -0.015220753 -0.017929588 -0.017946286 -0.021918382
000020 ce 4b f7 3c 4f 54 11 3d cb 5d 35 bc f5 03 a4 bb
       0.030187514 0.035480794 -0.011069725 -0.0050053545
000030 94 37 e0 bc 3b ef 93 bc 3e 4d da bb 91 2d 26 3c
       -0.027370252 -0.01805841 -0.00666204 0.0101427
000040 6a 69 60 bd 51 3a e4 3b 05 e9 0d bb db c9 1d 3c
       -0.05478803 0.0069649597 -0.0021653783 0.009630646
000050 cb 21 be 3b ec 88 34 3c db 3d 00 bd 61 3d 2b bb
       0.0058023683 0.011018973 -0.03130899 -0.0026129114
000060 48 93 ad 3a 62 ea f5 39 6c 7a 9d bc 76 c8 04 3d
       0.0013242746 0.0004690467 -0.019223414 0.032417737
000070 e1 87 b1 bc 59 0f a2 bb 2c dc b4 bb 26 f4 84 bb
       -0.021671237 -0.0049456772 -0.0055194106 -0.004057425
000080 b9 b5 2f ba bb 93 50 bc 42 73 d6 bc d0 92 97 bb
       -0.0006702799 -0.012730534 -0.026178006 -0.0046256557
000090 bf 53 59 3c 74 62 16 3c 18 b2 cf 3c 8d a4 a4 bc
       0.0132645955 0.0091787465 0.025353476 -0.020097995
0000a0 9e db e9 3c 68 66 11 bd 23 0d 14 3c a2 c3 a1 3c
       0.028547104 -0.035498053 0.009036335 0.019746605
0000b0 3b 84 85 3c a8 e2 14 3d ca 96 4d bd bd b7 02 bd
       0.016298404 0.03634897 -0.05019263 -0.031913508
0000c0 26 be de 3c 1d f3 0a 3b 68 a7 a5 3c 9a 5b 88 bb
       0.02719028 0.0021202036 0.020221427 -0.0041613104
0000d0 7a a6 5f bd 1a 5b ab bc 00 84 a8 3c c4 2d d6 3c
       -0.054602124 -0.020917464 0.020570755 0.02614487
0000e0 ad 4a 6e 3c 74 cb bf bb f3 f5 a3 bb 45 3e 86 bc
       0.014544171 -0.005853111 -0.0050036847 -0.016387114
0000f0 bd 3d 37 bc 2c 48 96 bb 80 b0 00 3d 2e 54 14 3d
       -0.011184153 -0.0045862403 0.031418324 0.036213093
000100 60 1a 6e bd 12 22 e9 3b 80 65 33 bd 61 51 5b bc
       -0.058130622 0.007114657 -0.04379797 -0.013386101
000110 55 8b 4d bb 86 0c fa bb 14 0f 40 3b 38 02 f4 bc
       -0.0031363566 -0.0076308874 0.0029305862 -0.029786214
000120 d9 04 92 3a 76 62 b3 bc d4 ef 8c 3c 4b d9 50 bc
       0.0011140361 -0.021897536 0.017204203 -0.012747119
000130 84 0d 8c 3c 7f 38 d7 3c 45 3e 38 bc d2 03 bf bc
       0.017096289 0.026272057 -0.011245315 -0.023317251
000140 90 77 5a bc ff 95 f4 3c 8f fd 97 bc 01 85 de 3b
       -0.01333417 0.02985668 -0.018553523 0.0067907576
000150 48 10 63 bb 68 34 88 3c 3d ff e0 3c 13 91 ce 3b
       -0.0034647156 0.016626552 0.027465457 0.0063039153
000160 5b 66 b0 3c 19 8f ad 3b f5 1a 3f 3c dc df f6 bb
       0.021533182 0.0052965996 0.011664142 -0.0075340103
000170 25 9a a7 bc 67 d7 1e 3c 81 ab a9 bc a8 ff 11 bc
       -0.020459244 0.009694911 -0.020711662 -0.008911051
000180 62 f8 b9 3c 08 5e e9 bc aa 30 9f bc 49 06 2b bc
       0.022701446 -0.02848722 -0.019432385 -0.01043851
000190 6d a4 6f ba a9 c4 bd bc c3 45 b7 3c 51 fc d1 3b
       -0.0009141628 -0.023165064 0.022372132 0.0064082523
0001a0 0c fd 63 3c ed ed 1f 3c 64 ec b2 bc ad ba eb 3c
       0.013915312 0.009761316 -0.021841235 0.028775537
0001b0 78 ad d8 bc 93 85 e7 3c 4a a0 d9 3c ae df 73 3c
       -0.026449904 0.028261935 0.02656569 0.014884872
0001c0 12 52 01 bb 01 5f 21 bb 94 84 35 bd 1d f9 7a bb
       -0.0019732756 -0.0024623277 -0.04431589 -0.0038295456
0001d0 17 24 fd 3c 8d e9 f8 3b da b2 83 bc 22 87 49 bc
       0.030900998 0.007596201 -0.016076494 -0.012300285
0001e0 7d a9 d6 bb 4b d1 f9 bc da 3c b0 3c d4 66 44 bb
       -0.0065509663 -0.030495306 0.021513391 -0.0029968517
0001f0 11 53 61 bd f1 6b 8b bc 00 9c d8 3b d6 37 f7 bb
       -0.05501086 -0.017019244 0.0066103935 -0.007544498
000200 c4 27 f9 3b 03 a1 15 3d 6d f0 40 bd c6 37 2b 3c
       0.0076036174 0.036530506 -0.047104288 0.010450309
000210 9b a4 1b bd 85 e3 09 bd bb 45 6a 3c 6d 34 2c 3d
       -0.037998777 -0.033664245 0.014298852 0.042042185
000220 84 22 10 bd b8 93 be bc ec ae 91 bb 1d b3 5e 3b
       -0.035189167 -0.023263797 -0.004445901 0.0033981272
000230 d4 d1 78 3c 02 60 3a 3d 36 f1 bd ba 52 d9 d8 bc
       0.015186746 0.045501716 -0.0014491442 -0.026470814
000240 e2 5e 33 bb 84 19 ab bc 80 14 81 3c 80 80 86 3c
       -0.0027369787 -0.02088619 0.015756845 0.016418695
000250 3a e4 66 bc 68 36 fd bc f1 4b de 3c fd 4d 8b bb
       -0.014092499 -0.030909732 0.027135821 -0.0042512403
000260 b7 6a f1 3b 30 8e 60 3a 28 25 f8 3c c5 63 0c 3c
       0.0073674577 0.00085661095 0.030291155 0.008568709
000270 b7 17 9d bc 24 74 b8 bc 31 e5 fc 3c 55 f5 0a 3d
       -0.019176347 -0.022516318 0.030871006 0.033925373
000280 0d 94 9a bc 3f e1 6c bc 17 0f 64 bc 47 35 c8 bc
       -0.018869424 -0.014458 -0.013919613 -0.024439467
000290 5f f9 63 bc 0d c4 3d bc ab 39 8b bb 7c 20 a9 3b
       -0.013914435 -0.011582387 -0.004248818 0.005161343
0002a0 8d 49 6b bc 4f 05 c9 bc 67 13 83 3c 8a ee 32 3c
       -0.014360798 -0.024538664 0.016000463 0.01092113
0002b0 e7 55 8d bb 4b 82 91 bb a9 15 8c 3b b9 1c 82 bc
       -0.004313219 -0.004440581 0.004275043 -0.015882837
0002c0 b2 1e 32 bc 1e 87 11 3d 25 aa b5 bc 42 46 16 bc
       -0.010871576 0.03552925 -0.022175858 -0.009172024
0002d0 9c e2 57 3c d5 7e 95 bb 25 69 ac bc 99 c6 ee bc
       0.0131765865 -0.0045622387 -0.02104623 -0.029147433
0002e0 53 43 81 bc c1 98 98 bc 73 fc d0 3c e3 fe c7 3c
       -0.015779173 -0.018627526 0.025511002 0.024413532
0002f0 e4 37 c1 bc a3 1a 07 bc 0f a3 37 3c 58 92 99 bc
       -0.023586221 -0.008246097 0.01120831 -0.01874654
000300 b4 27 ae 3a 1c d5 1d 3a 63 21 a6 3c 23 e1 36 3d
       0.0013286979 0.00060208305 0.020279592 0.0446483
000310 41 a3 35 bc 6c a5 85 ba 81 97 ea 3c 98 e0 47 3c
       -0.011086286 -0.0010196394 0.028636696 0.012199543
000320 72 15 ba 3b c9 e0 0d 3d 2b 07 ad bc 20 b7 48 bc
       0.005678826 0.0346382 -0.021121582 -0.012250692
000330 59 71 ee bc 28 b0 68 3c b0 e0 3f 3d 6a 29 8a bc
       -0.029106783 0.014202155 0.046845138 -0.01686545
000340 f8 f2 98 bc df f4 83 3c e3 c7 bf 3b 30 ce b6 bc
       -0.018670544 0.016107975 0.005852686 -0.022315115
000350 a3 93 39 3d e5 50 2a bb 12 05 5e bb 40 e3 04 bd
       0.045306813 -0.0025988158 -0.0033877534 -0.032443285
000360 14 5e f7 3c 44 00 55 3c 00 64 19 ba 13 8f 81 3c
       0.030196227 0.013000552 -0.0005851388 0.015815293
000370 f0 b5 f1 bc 53 77 f2 3c 4c 0f 67 bc 22 da d9 3c
       -0.0295057 0.029597914 -0.014102768 0.026593272
000380 50 34 8c 3b e4 de e5 3b 8d 8c 88 3c 63 c1 cc bc
       0.004278697 0.007015096 0.016668582 -0.024994558
000390 c0 9f f6 ba 27 29 99 bc 84 1f 37 3c 79 9e 48 bc
       -0.001881592 -0.01869638 0.0111769475 -0.012244814
0003a0 41 2c b3 3c 4b 1a d2 3b 9e 56 8a bc bc ee 83 bc
       0.021871688 0.006411826 -0.016887005 -0.016105048
0003b0 66 38 ed 3c 46 2f b1 3c 6d 1f eb 3b 3b 81 c1 bb
       0.028957557 0.021628987 0.007175377 -0.005905298
0003c0 6c 11 52 3c 48 b5 5a 3c 50 9d 2c bc 00 57 e1 bb
       0.0128215365 0.013348885 -0.010535553 -0.0068768263
0003d0 bf 77 61 3c de 23 f8 bc 18 74 5b bb 08 94 9a 3b
       0.01376146 -0.03029054 -0.0033485945 0.0047173537
0003e0 cb bc a5 3c 21 fb f3 bc 8d 32 5f bc 54 94 eb 3c
       0.020231625 -0.029782834 -0.013622892 0.028757252
0003f0 bc 85 0f 3c d0 6d e6 bc 56 a6 c8 bc 0b c9 9e bc
       0.008759912 -0.028128535 -0.024493378 -0.019382974

fc1.bias f4 [50]
000000 f6 54 36 3d 7b d8 8d bb 84 b5 aa 3c d3 fe a1 3c
       0.04451462 -0.004328785 0.020838507 0.01977483
000010 d1 35 a5 bc 4c c1 41 3d 0e 05 67 bc 7a d1 00 3d
       -0.020167263 0.047303483 -0.014100326 0.031449772
000020 b3 c5 2c 3d 91 0d d1 3c c6 2f 89 3b c5 27 eb 3b
       0.04218073 0.025519164 0.0041866032 0.0071763718
000030 df 28 0a bc c2 a8 04 3d 3b b0 60 3c b5 ab 96 3c
       -0.008432596 0.032387502 0.013713892 0.018392423
000040 5e bc 2f 39 b1 5a c5 3b a3 4e b2 bb 61 a2 04 bd
       0.00016759473 0.006022774 -0.005441503 -0.03238142
000050 98 a0 80 3c 57 f0 9f bc db 19 04 bc 58 49 3f 3c
       0.015701577 -0.019523783 -0.008062805 0.011675201
000060 ac e7 85 3c fb e1 e5 bc 11 ca 88 3c ae 7b 26 3d
       0.016345821 -0.028061857 0.016697915 0.040645294
000070 21 99 62 3c ae 14 3a 3d 6d e7 d4 bc 25 1c 96 3c
       0.013830454 0.045429878 -0.025989259 0.018323967
000080 ba 5b 86 3c 40 13 91 3c 85 c8 ad 3c 6a 9e 26 3d
       0.01640116 0.017709374 0.02121378 0.04067842
000090 1b 45 68 3a ee 28 58 bc 96 a9 6c 3c 57 40 07 3d
       0.0008860395 -0.013193352 0.014444729 0.033020344
0000a0 7c 2c 97 bc 00 49 c3 bc 8e 27 0f ba 59 92 43 3d
       -0.018453829 -0.02383852 -0.0005460911 0.04774699
0000b0 30 9b 81 3c c4 aa f3 bc d9 7e 62 3c 45 44 72 3a
       0.01582107 -0.029744513 0.013824188 0.00092417403
0000c0 a8 3b 1e 3d 34 f8 6b bc
       0.03863111 -0.014402438

fc2.weight f4 [10, 50]
000000 27 94 94 bd 59 64 84 3e f3 96 10 3e c4 f0 eb 3d
       -0.0725482 0.2585781 0.14120083 0.11520532
000010 aa 7c 6c 3d ac 18 8e 3d 44 4e 24 3e 27 12 2f 3d
       0.057736076 0.069382995 0.16045481 0.04274192
000020 43 50 12 3e 32 d8 11 be 95 35 d3 3c 00 85 1b 3d
       0.1428843 -0.14242628 0.025782386 0.037968636
000030 13 bf 0e be f8 c3 91 bd f7 af 0a be ec bc f9 bd
       -0.13940077 -0.07117456 -0.13543688 -0.12194237
000040 59 a5 5e 3e fd 7b f9 bd 05 48 01 bc ae 54 e6 bd
       0.21742763 -0.12181852 -0.007890706 -0.1124662
000050 7b 40 2d 3d 70 e1 68 3c 3f e9 8e be b3 4b 02 be
       0.04229782 0.014213905 -0.27912328 -0.1272419
000060 3e 27 f2 3d d4 26 2b be 45 b4 27 bd 3b ff 60 bd
       0.11823891 -0.1671403 -0.040943403 -0.054930907
000070 a4 72 60 bd b5 ec 60 3e 4d 72 bf bd 50 ad 54 3c
       -0.05479683 0.21965297 -0.09347973 0.012980774
000080 38 bc fb bd 19 e1 0e be ba 5f 8b 3e f7 3b 18 be
       -0.12291759 -0.13953055 0.2722147 -0.14866625
000090 4a 93 70 3d 58 5e 19 3e 4a f3 42 3d 23 f4 70 be
       0.058734216 0.14977396 0.0475953 -0.23530631
0000a0 c3 16 ef bd 89 34 9d bd 05 53 5f bd a8 2a 25 be
       -0.11674263 -0.07676036 -0.054522533 -0.16129553
0000b0 09 f6 3c 3e f9 92 dd bb a8 54 09 3e 21 96 0e 3e
       0.1845323 -0.0067619053 0.134112 0.13924457
0000c0 36 83 53 be f7 72 6c 3c 88 cd 6f 3e 3d cf 18 bd
       -0.20655522 0.014431707 0.23418248 -0.037307013
0000d0 8d cc e0 3d 94 cc ac 3c 1c 42 97 bd 95 f9 b5 be
       0.10976515 0.021093644 -0.07385656 -0.35541978
0000e0 9d 10 76 be f0 9e e7 bd ac 80 3f 3d 8d 4b 3d be
       -0.24029775 -0.11309612 0.04675357 -0.18485852
0000f0 28 09 b9 3d 9c ec 43 3e fa 54 48 3b 2c bb 31 be
       0.090349495 0.19133228 0.0030568228 -0.17356557
000100 6d 2e 01 3e af 19 2c bc d5 cf 5e 3e ea 79 25 3e
       0.12615366 -0.01050417 0.21758969 0.16159788
000110 13 24 3a 3d 9b 68 64 bd dd 3f f7 bd 6c 3b 68 3d
       0.04544456 -0.055763822 -0.12072728 0.056697294
000120 a6 5b 14 3e 12 1f 1d be 3c 94 2e 3e b4 6f 7a be
       0.14488086 -0.15343884 0.17048734 -0.24456674
000130 c0 f3 79 3e bd 26 47 3e 73 d4 06 3e 29 18 88 bd
       0.2440939 0.19448371 0.1316698 -0.06645233
000140 55 0a 06 be 31 c7 f9 bd 77 d5 f4 bc c3 03 a6 3e
       -0.13089879 -0.12196196 -0.029886944 0.32424745
000150 2f 1a 39 be 60 a0 68 be 36 d2 04 be 7f 4d 27 be
       -0.18076394 -0.22717428 -0.12970814 -0.16338156
000160 84 ff 85 3d b1 67 6e be f4 0a 24 3e b2 63 c9 bd
       0.06542876 -0.23281743 0.16019803 -0.098334685
000170 ef 53 0f be 8d b9 64 be 36 13 23 3e 27 f3 00 bc
       -0.13996862 -0.22336407 0.15925297 -0.007870472
000180 9b d2 78 bc bb 35 c6 3d 72 c9 85 bd eb 25 17 be
       -0.015186931 0.09678217 -0.06532563 -0.14760558
000190 f0 d6 55 bd 2a 9a 6c 3e 20 41 15 3d 70 96 eb 3d
       -0.052206933 0.23105684 0.03643906 0.11503303
0001a0 4c cc cb bd 6f 48 e2 bd 1c 5d 23 3e bf 75 e6 3c
       -0.09951076 -0.11048972 0.15953487 0.028132318
0001b0 7b 3c 31 be d2 1b ba 3d 09 a7 7b bc 49 c2 06 3d
       -0.17308228 0.090873376 -0.0153596485 0.03290013
0001c0 2c fb db 3c f2 52 ec bd 8d 09 6b be e1 ea 62 3d
       0.026853167 -0.11539258 -0.22952862 0.05539978
0001d0 cc e5 42 be e6 a7 2a be 1d 71 0c be be fc 0e be
       -0.19032973 -0.1666561 -0.13715024 -0.13963601
0001e0 0d d9 6d 3d f0 fe 10 bd a1 41 55 3d a5 02 0b 3e
       0.058068324 -0.035399377 0.05206454 0.13575228
0001f0 f8 01 ea 3d 9c 31 42 be 3a 05 c6 bd 05 33 4d be
       0.11426157 -0.18964237 -0.09668966 -0.20038994
000200 86 4a c7 3d 65 19 dd bc a8 cd 06 be d9 9e 93 bb
       0.09731011 -0.026989648 -0.13164389 -0.00450502
000210 7f ab 81 3d 2c fd ad bd 73 1c 27 be 77 9e 9b bd
       0.063315384 -0.08495554 -0.16319446 -0.07598584
000220 c2 d2 31 3e 54 86 15 3e 93 bf 63 3d c2 a5 10 3d
       0.17365554 0.14602023 0.05560262 0.03531433
000230 1d 1a e0 bd b3 51 01 be a9 11 90 3c f4 88 7e bd
       -0.10942481 -0.12628822 0.017586546 -0.062142327
000240 87 eb 47 3e fa a8 38 3e 9c fc 0c be 7a 25 14 3e
       0.1952344 0.1803321 -0.13768238 0.14467421
000250 e8 bc e2 3d 38 f9 a1 3d c0 5d 34 3e 24 cc 23 bd
       0.11071187 0.07908863 0.17613888 -0.039989606
000260 c7 a7 d0 bd f5 b9 79 bd 79 6e ff bd 41 6b 28 3d
       -0.10188251 -0.060968358 -0.12472243 0.04111791
000270 d6 22 19 3e eb 92 1d 3d 43 29 38 3d be 8a 46 be
       0.14954695 0.03847019 0.044961225 -0.19388863
000280 af de a0 bd 32 a3 41 3e 84 ab aa bd 66 d1 07 3c
       -0.078549735 0.1890991 -0.08333495 0.008289671
000290 11 ed 10 3e 6b 74 64 bd 18 ca 2e 3e 81 74 c7 3d
       0.14152934 -0.055775087 0.1706928 0.09739018
0002a0 c9 96 ae bd 08 57 c1 bd 9a d6 e0 bb a9 c0 04 be
       -0.08524854 -0.09440428 -0.00686152 -0.12964119
0002b0 1a 1e 89 be 0b 0d 0a be a7 c4 1d 3e d3 1f d9 3c
       -0.26780778 -0.13481538 0.15407048 0.026504433
0002c0 f8 33 84 be c4 e0 4d 3e 0b f8 75 bd 35 98 10 be
       -0.258209 0.20105273 -0.060051005 -0.14120562
0002d0 1f 79 dc bd 2a e1 ea bb 2a c6 0e 3e 4f f8 a0 bd
       -0.107652895 -0.007167955 0.13942781 -0.07859861
0002e0 82 7b 68 3e c5 3c 3a be 2d e6 bc 3d de cd ab 3d
       0.22703364 -0.18187244 0.0922359 0.083888754
0002f0 46 67 8f 3d 2b d6 1d be 34 ed 0d 3e 59 4b c1 bd
       0.0700212 -0.1541373 0.13860017 -0.094381995
000300 8d 9d 31 bd c1 94 02 be 4c 11 38 3e 43 77 82 bd
       -0.043363143 -0.12752058 0.17975348 -0.063704036
000310 15 cf e4 bd d6 1c 09 3e 76 f9 cc bd db fb 9c bd
       -0.1117231 0.13389906 -0.100085184 -0.07665225
000320 78 76 75 bd 90 c6 6c 3d e9 92 67 3d 42 4e 46 be
       -0.059927434 0.05780655 0.05653659 -0.1936579
000330 b8 54 7b bb 2c 2a a1 be 0d 13 1b 3e 6a 0b 8b 3d
       -0.0038350057 -0.31477487 0.15143986 0.067892864
000340 7f 6e a8 be fe cb 17 3d bb 0e 62 bd f7 7a 28 3e
       -0.32896802 0.037059776 -0.05518983 0.16453157
000350 0b db ca bd 5d a7 f7 bd 0e 68 22 be bb 99 16 bd
       -0.099050604 -0.12092469 -0.15860006 -0.036767703
000360 79 a5 50 bd fd 28 38 be d8 b3 c3 ba 2c 32 06 be
       -0.050939057 -0.17984386 -0.0014930917 -0.13105077
000370 0c c9 4f bd 57 2f e8 3c af 9c f9 3d 1d 06 08 3e
       -0.050728843 0.028342886 0.12188088 0.13283582
000380 d2 be 09 3e a2 d5 41 3c 19 bd 3a bd ab c0 dc ba
       0.13451698 0.011830719 -0.045590494 -0.0016842087
000390 de cc 0b be f4 19 8d be bc 3f 93 bd e9 f4 20 3d
       -0.1365237 -0.27558863 -0.07189891 0.039296065
0003a0 ff 99 da 3d 55 6c f5 bd e1 a5 00 be 73 3c 2c be
       0.10673904 -0.11983553 -0.12563278 -0.16819935
0003b0 a4 50 1f 3e 0a 13 14 3e a9 bd 3a 3d f7 93 d5 3d
       0.15558106 0.14460388 0.04559103 0.10428613
0003c0 c0 56 02 3e f4 c8 ab 3d 9c a8 b8 bd 7f cc 49 be
       0.12728405 0.08387938 -0.09016535 -0.19706915
0003d0 a7 d0 39 3e 87 82 3e 3e a8 78 e1 3d 09 ff 1d 3e
       0.18146001 0.1860448 0.110093415 0.1542932
0003e0 44 70 3b bd ef 68 0d 3e a7 be a2 3c 47 ec e7 bd
       -0.04576136 0.1380956 0.0198663 -0.11324363
0003f0 3b 73 e2 bc 6f df 1e 3e d2 14 cc 3d d5 d0 b8 3d
       -0.027642837 0.1551492 0.09964909 0.090242065

fc2.bias f4 [10]
000000 bc e6 d2 3d df 97 3c bc d5 39 62 3c 16 a7 df 3c
       0.10297915 -0.011510818 0.013807734 0.027301352
000010 0b 9b ab bb c4 ec 8e 3e 26 c9 2f 3e 28 46 54 bd
       -0.0052369884 0.27915013 0.17166576 -0.05182472
000020 99 82 dd bd 7e 10 2e be
       -0.10815925 -0.16998479
